Using device: cpu
Downloading wildfire dataset...
Dataset downloaded to: /Users/juanlosauro/.cache/kagglehub/datasets/abdelghaniaaba/wildfire-prediction-dataset/versions/1

Loading training dataset...
  nowildfire: 14500 images
  wildfire: 15750 images

Loading validation dataset...
  nowildfire: 2820 images
  wildfire: 3480 images

Loading test dataset...
  nowildfire: 2820 images
  wildfire: 3480 images

Dataset Statistics:
  Training samples: 30250
  Validation samples: 6300
  Test samples: 6300
  Total: 42850

Initializing model...
WildfireCNN(
  (features): Sequential(
    (0): Conv2d(3, 32, kernel_size=(3, 3), stride=(1, 1), padding=(1, 1))
    (1): BatchNorm2d(32, eps=1e-05, momentum=0.1, affine=True, track_running_stats=True)
    (2): ReLU(inplace=True)
    (3): Conv2d(32, 32, kernel_size=(3, 3), stride=(1, 1), padding=(1, 1))
    (4): BatchNorm2d(32, eps=1e-05, momentum=0.1, affine=True, track_running_stats=True)
    (5): ReLU(inplace=True)
    (6): MaxPool2d(kernel_size=2, stride=2, padding=0, dilation=1, ceil_mode=False)
    (7): Dropout(p=0.25, inplace=False)
    (8): Conv2d(32, 64, kernel_size=(3, 3), stride=(1, 1), padding=(1, 1))
    (9): BatchNorm2d(64, eps=1e-05, momentum=0.1, affine=True, track_running_stats=True)
    (10): ReLU(inplace=True)
    (11): Conv2d(64, 64, kernel_size=(3, 3), stride=(1, 1), padding=(1, 1))
    (12): BatchNorm2d(64, eps=1e-05, momentum=0.1, affine=True, track_running_stats=True)
    (13): ReLU(inplace=True)
    (14): MaxPool2d(kernel_size=2, stride=2, padding=0, dilation=1, ceil_mode=False)
    (15): Dropout(p=0.25, inplace=False)
    (16): Conv2d(64, 128, kernel_size=(3, 3), stride=(1, 1), padding=(1, 1))
    (17): BatchNorm2d(128, eps=1e-05, momentum=0.1, affine=True, track_running_stats=True)
    (18): ReLU(inplace=True)
    (19): Conv2d(128, 128, kernel_size=(3, 3), stride=(1, 1), padding=(1, 1))
    (20): BatchNorm2d(128, eps=1e-05, momentum=0.1, affine=True, track_running_stats=True)
    (21): ReLU(inplace=True)
    (22): MaxPool2d(kernel_size=2, stride=2, padding=0, dilation=1, ceil_mode=False)
    (23): Dropout(p=0.25, inplace=False)
  )
  (avgpool): AdaptiveAvgPool2d(output_size=(1, 1))
  (classifier): Sequential(
    (0): Linear(in_features=128, out_features=256, bias=True)
    (1): ReLU(inplace=True)
    (2): Dropout(p=0.5, inplace=False)
    (3): Linear(in_features=256, out_features=2, bias=True)
  )
)

Starting training...

Epoch 1/20
Training:   0%|          | 0/946 [00:00<?, ?it/s]Training:   0%|          | 0/946 [00:15<?, ?it/s, loss=0.911, acc=50]Training:   0%|          | 1/946 [00:15<4:08:02, 15.75s/it, loss=0.911, acc=50]Training:   0%|          | 1/946 [00:24<4:08:02, 15.75s/it, loss=0.554, acc=62.5]Training:   0%|          | 2/946 
…
